lightning_logs/version_10/checkpoints/epoch=299-step=600.ckpt (torch, 7417 bytes, 12 tensors)

lstm.weight_ih_l0 f4 [4, 1]
00000000: fc66 923f 0980 803f b01e 5440 e4ed 4a3f
1.1437678 1.0039073 3.314373 0.7926924

lstm.weight_hh_l0 f4 [4, 1]
00000000: 962e 9340 e923 9040 a81e 2340 0b4a 1440
4.5994368 4.5043836 2.548746 2.3170192

lstm.bias_ih_l0 f4 [4]
00000000: 3483 f43d e63e 363e 0bde a5be 17ba a7be
0.119390875 0.17797431 -0.32395968 -0.32759163

lstm.bias_hh_l0 f4 [4]
00000000: 6fd0 1ebe 29dc 843f 6d54 9bbf 0a63 793f
-0.15509199 1.0379688 -1.213514 0.97416747

exp_avg f4 [4, 1]
00000000: 83f0 8cb8 8e64 86b7 dbbb 72b8 cd06 73ba
-6.720519e-05 -1.602087e-05 -5.787225e-05 -0.0009270728

exp_avg_sq f4 [4, 1]
00000000: c417 c538 c2ed 0338 2852 273a 7869 893c
9.398119e-05 3.1454263e-05 0.00063827867 0.016773924

exp_avg f4 [4, 1]
00000000: 7e3d 2eb7 11a1 f035 fa09 9cb8 c855 6cba
-1.03855255e-05 1.792827e-06 -7.440518e-05 -0.0009015468

exp_avg_sq f4 [4, 1]
00000000: efad fe36 c7c9 d136 f505 ef38 f8fc 863b
7.5900384e-06 6.2521754e-06 0.00011397518 0.0041195117

exp_avg f4 [4]
00000000: 11bc c7b8 61c7 edb7 e6f7 f5b8 5874 87ba
-9.5240895e-05 -2.8345445e-05 -0.00011728685 -0.0010334356

exp_avg_sq f4 [4]
00000000: 5982 7e39 f62d ad38 a3a0 903b 1587 bd3c
0.00024271886 8.257844e-05 0.0044136806 0.023135701

exp_avg f4 [4]
00000000: 11bc c7b8 61c7 edb7 e6f7 f5b8 5874 87ba
-9.5240895e-05 -2.8345445e-05 -0.00011728685 -0.0010334356

exp_avg_sq f4 [4]
00000000: 5982 7e39 f62d ad38 a3a0 903b 1587 bd3c
0.00024271886 8.257844e-05 0.0044136806 0.023135701
