lightning_logs/version_6/checkpoints/epoch=299-step=600.ckpt (torch, 7417 bytes, 12 tensors)

lstm.weight_ih_l0 f4 [4, 1]
0	0x404a419a	3.160254
1	0x3f989f7b	1.192367
2	0x40152b7e	2.3307796
3	0x3f62d359	0.8860374

lstm.weight_hh_l0 f4 [4, 1]
0	0x408798fb	4.2374244
1	0x4035cfc7	2.8408067
2	0x4077ffc8	3.8749866
3	0x3fd5a718	1.6691618

lstm.bias_ih_l0 f4 [4]
0	0xbef434f7	-0.4769666
1	0x3f7e6fa9	0.9938913
2	0xbf3ff253	-0.7497913
3	0x3f376906	0.7164463

lstm.bias_hh_l0 f4 [4]
0	0xbfdfacb7	-1.7474583
1	0x4002a68b	2.041415
2	0xbec79c01	-0.3898621
3	0x3f6f5e6b	0.93503445

exp_avg f4 [4, 1]
0	0xb8840b71	-6.2963816e-05
1	0xb5895aee	-1.023376e-06
2	0xb8592dae	-5.1779374e-05
3	0xb9b32210	-0.0003416692

exp_avg_sq f4 [4, 1]
0	0x3a0ca9be	0.000536587
1	0x370cfa5c	8.402942e-06
2	0x3a5e77ce	0.000848648
3	0x3bc9871a	0.0061501386

exp_avg f4 [4, 1]
0	0xb7d0e9fb	-2.4904488e-05
1	0xb58fdb5c	-1.0718172e-06
2	0xb72c5f47	-1.0274182e-05
3	0xb9abb2ab	-0.0003274878

exp_avg_sq f4 [4, 1]
0	0x380ced87	3.3599816e-05
1	0x36223ae8	2.417417e-06
2	0x37aa8901	2.0329377e-05
3	0x3aa582b9	0.0012627459

exp_avg f4 [4]
0	0xb8c88b2d	-9.562667e-05
1	0xb6116ccd	-2.1670014e-06
2	0xb84ea889	-4.9271188e-05
3	0xb9bc9541	-0.00035969357

exp_avg_sq f4 [4]
0	0x3aa8ded5	0.0012883792
1	0x37bb2840	2.231088e-05
2	0x3b40ba16	0.002940779
3	0x3bcda985	0.006276312

exp_avg f4 [4]
0	0xb8c88b2d	-9.562667e-05
1	0xb6116ccd	-2.1670014e-06
2	0xb84ea889	-4.9271188e-05
3	0xb9bc9541	-0.00035969357

exp_avg_sq f4 [4]
0	0x3aa8ded5	0.0012883792
1	0x37bb2840	2.231088e-05
2	0x3b40ba16	0.002940779
3	0x3bcda985	0.006276312
