lightning_logs/version_9/checkpoints/epoch=299-step=600.ckpt (torch, 7417 bytes, 12 tensors)

lstm.weight_ih_l0 f4 [4, 1]
000000 5a f4 a5 3d 2f a9 be 3e 76 d1 d4 3f 8d 52 d8 3d
       0.08103247 0.37238452 1.6626422 0.1056262

lstm.weight_hh_l0 f4 [4, 1]
000000 e1 54 08 40 1c ca 25 40 c5 25 a5 3f e9 ae 1d 40
       2.1301806 2.5904608 1.2902151 2.4638007

lstm.bias_ih_l0 f4 [4]
000000 88 0d 5d 3f 50 c2 9a 3f 2c 3c 1d 3e 12 2b 96 3f
       0.8634877 1.209055 0.15354985 1.1731894

lstm.bias_hh_l0 f4 [4]
000000 8f bc 65 3f 15 6a 01 3f 54 f6 20 bf 84 03 a8 3f
       0.8974084 0.50552493 -0.62875867 1.3126073

exp_avg f4 [4, 1]
000000 85 15 a2 b7 8c c6 92 35 fd 01 c7 b8 99 5f a8 b8
       -1.9321926e-05 1.0935632e-06 -9.48943e-05 -8.028671e-05

exp_avg_sq f4 [4, 1]
000000 0d dd 45 38 7a da 78 37 2f 73 16 3b b8 78 be 39
       4.717433e-05 1.483282e-05 0.0022956838 0.00036329567

exp_avg f4 [4, 1]
000000 80 0b 9a b6 45 ca fe b6 74 4c 0a b8 fd 59 a2 b8
       -4.5908964e-06 -7.593337e-06 -3.2972966e-05 -7.7415236e-05

exp_avg_sq f4 [4, 1]
000000 b1 bd 2e 36 c6 f0 94 36 6f f4 e2 39 c7 1a ac 38
       2.6038435e-06 4.4387734e-06 0.00043288196 8.206587e-05

exp_avg f4 [4]
000000 fe dc 99 b7 51 13 6f 35 6c 0f 4b b9 48 ef a8 b8
       -1.8341929e-05 8.906255e-07 -0.00019365334 -8.055434e-05

exp_avg_sq f4 [4]
000000 74 ca 92 38 ce 08 32 38 cd 92 b2 3c 0f da ea 39
       6.999532e-05 4.2446707e-05 0.021798516 0.00044794424

exp_avg f4 [4]
000000 fe dc 99 b7 51 13 6f 35 6c 0f 4b b9 48 ef a8 b8
       -1.8341929e-05 8.906255e-07 -0.00019365334 -8.055434e-05

exp_avg_sq f4 [4]
000000 74 ca 92 38 ce 08 32 38 cd 92 b2 3c 0f da ea 39
       6.999532e-05 4.2446707e-05 0.021798516 0.00044794424
