lightning_logs/version_5/checkpoints/epoch=299-step=600.ckpt (torch, 7417 bytes, 12 tensors)

lstm.weight_ih_l0 f4 [4, 1]
1.9561589 -0.7239155 2.1529348 0.53247607
00000000: 6a63 fa3f 8752 39bf afc9 0940 5a50 083f

lstm.weight_hh_l0 f4 [4, 1]
3.044842 3.2932415 3.121742 3.207631
00000000: b1de 4240 78c4 5240 9fca 4740 d449 4d40

lstm.bias_ih_l0 f4 [4]
-0.78799075 1.0588423 -0.8132945 1.134463
00000000: c3b9 49bf 2588 873f 1134 50bf 1536 913f

lstm.bias_hh_l0 f4 [4]
-0.6450121 1.0937462 -0.13762793 0.8677846
00000000: 831f 25bf e0ff 8b3f 56ee 0cbe 2227 5e3f

exp_avg f4 [4, 1]
-8.2243736e-05 -1.0728807e-05 -3.446319e-05 -4.780975e-05
00000000: 457a acb8 e0ff 33b7 928c 10b8 5487 48b8

exp_avg_sq f4 [4, 1]
0.004131662 0.00045833527 0.00052627374 0.00032033576
00000000: e562 873b b84c f039 a2f5 093a bdf2 a739

exp_avg f4 [4, 1]
-3.476545e-05 -3.5440676e-06 -2.5420437e-05 -3.932832e-05
00000000: 1ed1 11b8 9ed6 6db6 f93d d5b7 76f4 24b8

exp_avg_sq f4 [4, 1]
0.00054226274 0.00012125604 6.909321e-05 5.3257852e-05
00000000: a326 0e3a d74a fe38 22e6 9038 2f61 5f38

exp_avg f4 [4]
-0.00013558897 -1.6770215e-05 -2.7022837e-05 -5.2557032e-05
00000000: e32c 0eb9 c3ad 8cb7 1aaf e2b7 af70 5cb8

exp_avg_sq f4 [4]
0.009464798 0.0010209621 0.001780283 0.000525648
00000000: 3d12 1b3c ced1 853a 6358 e93a a4cb 093a

exp_avg f4 [4]
-0.00013558897 -1.6770215e-05 -2.7022837e-05 -5.2557032e-05
00000000: e32c 0eb9 c3ad 8cb7 1aaf e2b7 af70 5cb8

exp_avg_sq f4 [4]
0.009464798 0.0010209621 0.001780283 0.000525648
00000000: 3d12 1b3c ced1 853a 6358 e93a a4cb 093a
